…
epoch 9/20 : CEL = 6.059259
epoch 10/20 : CEL = 6.537036
epoch 11/20 : CEL = 6.383915
epoch 12/20 : CEL = 6.741770
epoch 13/20 : CEL = 6.853857
epoch 14/20 : CEL = 7.204565
epoch 15/20 : CEL = 7.234336
epoch 16/20 : CEL = 7.192622
epoch 17/20 : CEL = 7.019935
epoch 18/20 : CEL = 7.428772
epoch 19/20 : CEL = 7.498636
epoch 20/20 : CEL = 7.381959
accuracy = 0.268000


kagakusyuu
_________________________________________________________________
Layer (type)                 Output Shape              Param #   
=================================================================
dense_1 (Dense)              (None, 512)               401920    
_________________________________________________________________
activation_1 (Activation)    (None, 512)               0         
_________________________________________________________________
dense_2 (Dense)              (None, 2024)              1038312   
_________________________________________________________________
activation_2 (Activation)    (None, 2024)              0         
_________________________________________________________________
dense_3 (Dense)              (None, 2024)              4098600   
_________________________________________________________________
activation_3 (Activation)    (None, 2024)              0         
_________________________________________________________________
dense_4 (Dense)              (None, 2024)              4098600   
_________________________________________________________________
activation_4 (Activation)    (None, 2024)              0         
_________________________________________________________________
dense_5 (Dense)              (None, 2024)              4098600   
_________________________________________________________________
activation_5 (Activation)    (None, 2024)              0         
_________________________________________________________________
dense_6 (Dense)              (None, 2024)              4098600   
_________________________________________________________________
activation_6 (Activation)    (None, 2024)              0         
_________________________________________________________________
dense_7 (Dense)              (None, 2024)              4098600   
_________________________________________________________________
activation_7 (Activation)    (None, 2024)              0         
_________________________________________________________________
dense_8 (Dense)              (None, 2024)              4098600   
_________________________________________________________________
activation_8 (Activation)    (None, 2024)              0         
_________________________________________________________________
dense_9 (Dense)              (None, 10)                20250     
_________________________________________________________________
activation_9 (Activation)    (None, 10)                0         
=================================================================
Total params: 26,052,082
Trainable params: 26,052,082
Non-trainable params: 0
_________________________________________________________________

mnist
_________________________________________________________________
Layer (type)                 Output Shape              Param #   
=================================================================
conv2d_1 (Conv2D)            (None, 28, 28, 32)        320       
_________________________________________________________________
conv2d_2 (Conv2D)            (None, 28, 28, 64)        18496     
_________________________________________________________________
max_pooling2d_1 (MaxPooling2 (None, 14, 14, 64)        0         
_________________________________________________________________
dropout_1 (Dropout)          (None, 14, 14, 64)        0         
_________________________________________________________________
flatten_1 (Flatten)          (None, 12544)             0         
_________________________________________________________________
dense_1 (Dense)              (None, 128)               1605760   
_________________________________________________________________
dropout_2 (Dropout)          (None, 128)               0         
_________________________________________________________________
dense_2 (Dense)              (None, 10)                1290      
=================================================================
Total params: 1,625,866
Trainable params: 1,625,866
Non-trainable params: 0
_________________________________________________________________
None



dcgan
gen
_________________________________________________________________
Layer (type)                 Output Shape              Param #   
=================================================================
dense_1 (Dense)              (None, 1024)              103424    
_________________________________________________________________
re_lu_1 (ReLU)               (None, 1024)              0         
_________________________________________________________________
dense_2 (Dense)              (None, 6272)              6428800   
_________________________________________________________________
batch_normalization_1 (Batch (None, 6272)              25088     
_________________________________________________________________
re_lu_2 (ReLU)               (None, 6272)              0         
_________________________________________________________________
reshape_1 (Reshape)          (None, 7, 7, 128)         0         
_________________________________________________________________
conv2d_transpose_1 (Conv2DTr (None, 7, 7, 64)          204864    
_________________________________________________________________
batch_normalization_2 (Batch (None, 7, 7, 64)          256       
_________________________________________________________________
re_lu_3 (ReLU)               (None, 7, 7, 64)          0         
_________________________________________________________________
conv2d_transpose_2 (Conv2DTr (None, 14, 14, 32)        51232     
_________________________________________________________________
batch_normalization_3 (Batch (None, 14, 14, 32)        128       
_________________________________________________________________
re_lu_4 (ReLU)               (None, 14, 14, 32)        0         
_________________________________________________________________
conv2d_transpose_3 (Conv2DTr (None, 28, 28, 1)         801       
=================================================================
Total params: 6,814,593
Trainable params: 6,801,857
Non-trainable params: 12,736
_________________________________________________________________

dis
_________________________________________________________________
Layer (type)                 Output Shape              Param #   
=================================================================
conv2d_1 (Conv2D)            (None, 28, 28, 64)        1664      
_________________________________________________________________
leaky_re_lu_1 (LeakyReLU)    (None, 28, 28, 64)        0         
_________________________________________________________________
max_pooling2d_1 (MaxPooling2 (None, 14, 14, 64)        0         
_________________________________________________________________
conv2d_2 (Conv2D)            (None, 14, 14, 128)       204928    
_________________________________________________________________
leaky_re_lu_2 (LeakyReLU)    (None, 14, 14, 128)       0         
_________________________________________________________________
max_pooling2d_2 (MaxPooling2 (None, 7, 7, 128)         0         
_________________________________________________________________
flatten_1 (Flatten)          (None, 6272)              0         
_________________________________________________________________
dense_3 (Dense)              (None, 1024)              6423552   
_________________________________________________________________
leaky_re_lu_3 (LeakyReLU)    (None, 1024)              0         
_________________________________________________________________
dense_4 (Dense)              (None, 1)                 1025      
=================================================================
Total params: 6,631,169
Trainable params: 6,631,169
Non-trainable params: 0
_________________________________________________________________




cifar
_________________________________________________________________
Layer (type)                 Output Shape              Param #   
=================================================================
dense_1 (Dense)              (None, 1024)              103424    
_________________________________________________________________
re_lu_1 (ReLU)               (None, 1024)              0         
_________________________________________________________________
dense_2 (Dense)              (None, 8192)              8396800   
_________________________________________________________________
batch_normalization_1 (Batch (None, 8192)              32768     
_________________________________________________________________
re_lu_2 (ReLU)               (None, 8192)              0         
_________________________________________________________________
reshape_1 (Reshape)          (None, 8, 8, 128)         0         
_________________________________________________________________
conv2d_transpose_1 (Conv2DTr (None, 8, 8, 64)          204864    
_________________________________________________________________
batch_normalization_2 (Batch (None, 8, 8, 64)          256       
_________________________________________________________________
re_lu_3 (ReLU)               (None, 8, 8, 64)          0         
_________________________________________________________________
conv2d_transpose_2 (Conv2DTr (None, 16, 16, 32)        51232     
_________________________________________________________________
batch_normalization_3 (Batch (None, 16, 16, 32)        128       
_________________________________________________________________
re_lu_4 (ReLU)               (None, 16, 16, 32)        0         
_________________________________________________________________
conv2d_transpose_3 (Conv2DTr (None, 32, 32, 3)         2403      
=================================================================
Total params: 8,791,875
Trainable params: 8,775,299
Non-trainable params: 16,576
_________________________________________________________________
None
_________________________________________________________________
Layer (type)                 Output Shape              Param #   
=================================================================
conv2d_1 (Conv2D)            (None, 32, 32, 64)        4864      
_________________________________________________________________
leaky_re_lu_1 (LeakyReLU)    (None, 32, 32, 64)        0         
_________________________________________________________________
max_pooling2d_1 (MaxPooling2 (None, 16, 16, 64)        0         
_________________________________________________________________
conv2d_2 (Conv2D)            (None, 16, 16, 128)       204928    
_________________________________________________________________
leaky_re_lu_2 (LeakyReLU)    (None, 16, 16, 128)       0         
_________________________________________________________________
max_pooling2d_2 (MaxPooling2 (None, 8, 8, 128)         0         
_________________________________________________________________
flatten_1 (Flatten)          (None, 8192)              0         
_________________________________________________________________
dense_3 (Dense)              (None, 1024)              8389632   
_________________________________________________________________
leaky_re_lu_3 (LeakyReLU)    (None, 1024)              0         
_________________________________________________________________
dense_4 (Dense)              (None, 1)                 1025      
=================================================================
Total params: 8,600,449
Trainable params: 8,600,449
Non-trainable params: 0
_________________________________________________________________